Completed-Apps/mlkit-apps/TextExtractor/app/src/main/assets/model.tflite (tflite, 688124 bytes, 9 tensors)

arith.constant3 f4 [174, 100]
000000 07 0e 1b 3d e2 cc e0 bd 17 e9 66 bc 13 b0 0a be
       0.037855174 -0.10976578 -0.014093659 -0.1354373
000010 7d 1d dc bd 4e 7d 11 3d 97 2f 34 3e 7d a4 6d 3d
       -0.10747812 0.03551989 0.17596279 0.058018196
000020 98 4c 36 3a 88 31 b9 3d df 6b 14 bc d0 ea 46 be
       0.00069541624 0.090426505 -0.009058922 -0.19425511
000030 cb 1f a2 3d 48 28 e1 bd 4f 4f 3b be 6e 87 d0 3d
       0.0791622 -0.10994011 -0.18291973 0.10182081
000040 f5 67 b2 3d a6 fc 4d bd 37 8e 88 be e0 92 ab bb
       0.087112345 -0.050289772 -0.26671 -0.0052360147
000050 f7 5f a2 bc 82 71 38 bd 5a be 0e be 85 ce 35 be
       -0.01982115 -0.045030124 -0.13939801 -0.17754562
000060 ce 38 1a 3a 0d 66 4a 3e ea 5c 6d 3e ae 85 a1 3d
       0.00058830983 0.19765492 0.23179975 0.078868255
000070 6a 4f 1c bd ba cd 8f be ee 29 87 bc a3 a3 a6 bd
       -0.038161673 -0.28086644 -0.016499486 -0.0813668
000080 bc 31 a7 bd 59 75 a5 bd a6 61 4d be f3 e4 5e bd
       -0.08163783 -0.08079023 -0.20056781 -0.05441756
000090 1c 45 56 be b8 35 2a 3c 00 c6 71 3b 34 02 0d bd
       -0.209248 0.010388784 0.00368917 -0.03442593
0000a0 2b 99 5b be fb 80 ab 3d dd 55 2d 3e 35 22 60 3d
       -0.21445148 0.083742104 0.16927285 0.054720122
0000b0 5f 99 51 be 8f bb 13 bc a5 46 25 3d b9 90 5a 3e
       -0.20468663 -0.009016885 0.040350575 0.2134427
0000c0 6a ad a0 bd 60 e5 a6 3d 7e 50 41 3e 65 0a fc 3d
       -0.07845576 0.081492186 0.18878362 0.1230667
0000d0 8e 9c 12 be df ef 4a 3e c0 5d 2a 3e d1 cc b2 bd
       -0.14317533 0.19818066 0.16637325 -0.08730472
0000e0 e5 23 3e 3d db cd ac bd ac 85 af bc dd 9a 0a be
       0.04642095 -0.08437701 -0.021426044 -0.13535638
0000f0 27 8d 51 be 57 82 98 bc 6b 62 33 3d c5 01 1b 3d
       -0.20464002 -0.018616838 0.04379503 0.037843484
000100 19 8a 4f bd 40 33 a6 bb ae 11 a7 3d aa fa bc 3d
       -0.05066881 -0.0050720274 0.08157669 0.09227498
000110 ea a9 55 bd 09 0c 8a 3e ca 2f 26 be ec 92 e1 3c
       -0.052163996 0.26962307 -0.16229168 0.027535878
000120 b5 13 83 bd 41 84 0d be 9b bb f1 3d c6 8b 25 bd
       -0.06400243 -0.13819982 0.11803361 -0.0404165
000130 c2 3c 4d 3d 74 ae 80 3d 5a cd 30 3e 69 0d 76 3d
       0.05010677 0.06283274 0.17265835 0.060071383
000140 14 6d 66 be 43 80 2b bd 58 3b 03 3e 46 e6 1b 3e
       -0.22502548 -0.041870367 0.12815607 0.15224561
000150 43 5f d0 bd 06 58 ac 3c 3e e1 01 be fd c4 bc 3c
       -0.1017442 0.021038067 -0.1268358 0.02304315
000160 70 dc 39 bc 5f c1 51 bd 66 0b 48 be ff 06 57 be
       -0.01134406 -0.051209804 -0.19535598 -0.20998763
000170 a6 7d 32 be 39 0b 9a bc 02 39 91 3a ca 1b 01 be
       -0.17430744 -0.01880418 0.0011079612 -0.12608257
000180 5c 3b 55 3d a0 7c 3b bc ac 13 57 bd d9 26 8f 3d
       0.052058563 -0.011443287 -0.052508995 0.069898315
000190 6b 08 d8 bd 0e e4 02 3e 18 c6 e7 bc 0f 3c 8a 3d
       -0.105484806 0.12782308 -0.0282927 0.067497365
0001a0 a1 60 84 bd d9 50 19 be b5 fe 1a be 42 f9 c0 bd
       -0.06463743 -0.14972247 -0.15136226 -0.09422542
0001b0 67 d3 ce 3d 98 00 b2 bd 32 7c 99 bd f9 99 12 be
       0.100989155 -0.086915195 -0.074943915 -0.14316548
0001c0 2a 77 c7 bb ba 81 1c 3d c6 87 1e 3d f8 ba 27 3b
       -0.0060872035 0.038209654 0.038703702 0.002559362
0001d0 65 c7 0a be 1d f9 19 3e b7 c7 9b bb 63 63 79 bd
       -0.13552625 0.15036435 -0.0047540325 -0.0608858
0001e0 4d 0f cb bd 36 0d b8 3d ec 58 8b bc 12 89 6b 3d
       -0.09915028 0.08986895 -0.017010175 0.057503767
0001f0 c9 12 94 bd 44 5e 10 be 55 53 49 bd 87 bd e3 bd
       -0.072301455 -0.1409846 -0.049151737 -0.11120134
000200 ee 75 79 bd db 0c 5f 3d 24 ef 2e bd 1c 7b 11 3d
       -0.060903482 0.05445562 -0.04270853 0.035517797
000210 92 79 18 3e f5 86 08 bd 6f 8b f9 3d ef 96 59 bb
       0.14890125 -0.03333183 0.12184798 -0.0033201536
000220 fc d1 fa 3c 76 8d 79 3c 78 64 f9 bc cd bb 11 3b
       0.030617706 0.015231481 -0.030443415 0.0022237182
000230 df e1 e1 3d 20 7a 0d 3e f9 12 07 be 55 11 b7 3d
       0.110294096 0.13816118 -0.13190831 0.08938853
000240 29 05 02 3e b4 1c ba 3a 86 ec d8 ba 22 17 f0 bd
       0.12697281 0.0014199228 -0.0016549982 -0.11723162
000250 f9 5a 2f bd 93 bb 9c 3c 71 f9 e3 bd 06 ec c0 bc
       -0.042811368 0.019132411 -0.111315615 -0.023550045
000260 25 f8 c0 bd 35 95 07 be a1 04 27 be 75 5f 9e 3c
       -0.0942233 -0.13240512 -0.1631036 0.019332627
000270 57 81 23 bd 81 f9 0b 3e 87 21 ee 3d bd 24 36 3b
       -0.03991827 0.13669397 0.116274886 0.0027792894
000280 77 0a 9c 3b d3 98 f3 3d 1a 8c 05 3e 6e 72 16 3e
       0.0047619897 0.11894383 0.13041726 0.14692089
000290 7e 6e 06 bd 33 91 ef 3d 13 e3 c1 bb be 8b 1a 3c
       -0.032820217 0.116976164 -0.005916962 0.009432731
0002a0 6b f3 89 3d d5 6d dc 3b 5c 4f e8 3d 38 94 fa 3d
       0.067358814 0.00672696 0.113432616 0.12235302
0002b0 9d cf 6f 3c a1 8a 00 bd a0 2f 22 be a2 b7 a8 3d
       0.014636901 -0.031382207 -0.1583848 0.0823815
0002c0 73 55 1f be 95 6a 69 bd fd ec 98 3d a5 2e ac bd
       -0.1555994 -0.05698641 0.07467077 -0.08407334
0002d0 3a 93 a3 3d fd 4a 03 3e 20 2f 19 be 8d ba a4 bd
       0.079870656 0.12821575 -0.14959383 -0.08043394
0002e0 dc aa 82 39 ff 45 2a be cf f9 8e 3d 22 4d 4e bc
       0.00024922832 -0.16628264 0.06981241 -0.012591632
0002f0 6c a4 ab bc e1 5d 98 bd 26 b9 71 3d c7 a1 50 3d
       -0.020952426 -0.07439781 0.059014462 0.050935533
000300 86 47 c0 3d bb cf e0 3b c6 2d ca bc f0 53 23 3e
       0.09388642 0.006860701 -0.02468003 0.15949988
000310 8d 17 17 bd 77 cf c9 bd ed 81 10 bd c7 bd 3f be
       -0.036887694 -0.09854024 -0.035280157 -0.18724738
000320 e1 f3 bb bc 4b 31 ec bc 9e dc 73 bd de 4a 2e 3e
       -0.022943439 -0.028832098 -0.05953657 0.17020747
000330 0c d8 33 3d 95 d0 28 3d c0 26 d1 3d 12 54 bb bd
       0.04390721 0.041214544 0.10212469 -0.091468945
000340 f4 54 39 be 69 ab ef bd bf bb 02 bd 25 7c 1d 3e
       -0.18098813 -0.11702616 -0.03191733 0.15379389
000350 13 95 8f bd 4f 1d cf 3d 95 68 00 be ad 6a de 3d
       -0.070108555 0.10113012 -0.12539895 0.108601905
000360 30 fd fa bd 7e 0b 6b 3d d9 76 51 bc c9 ab 1d bd
       -0.12255323 0.057384007 -0.012784683 -0.038493905
000370 53 4a df bd af 20 af bd 9b e4 31 3d 3c ca bc 3d
       -0.10902848 -0.08551156 0.043430906 0.09218261
000380 eb ed 16 be b5 d6 07 3e 9a e0 ea bc 84 b8 f0 bd
       -0.14739196 0.13265498 -0.028671551 -0.117539436
000390 f1 8a c0 3b 0b 1d 1f 3e 59 28 61 be 6b f0 a9 bd
       0.005875938 0.15538423 -0.21988048 -0.08297809
0003a0 b9 73 c6 bd e5 e5 10 3d c0 46 6e 3c 5a f8 fa 3d
       -0.09690041 0.035375495 0.014543235 0.122544006
0003b0 45 da 15 be 39 56 d7 bd d7 1e 5e 3d 9f ba 15 be
       -0.14634044 -0.105144925 0.05422863 -0.14621972
0003c0 ad 0b d4 3d df e2 5f 3d 57 dd 89 3d 2f 22 c8 bd
       0.103537895 0.05465972 0.0673167 -0.09772145
0003d0 ad 00 33 be 04 94 8d 3d 7c d4 fd 3d 97 f5 b0 3c
       -0.17480727 0.06912997 0.12394044 0.021601481
0003e0 cd 4c f8 bd 02 6d 0f be fd 0b 0b be ea 04 b7 bd
       -0.121240236 -0.14006427 -0.13578792 -0.08936484
0003f0 ab c4 0e 3d c4 e4 b0 bc 96 0c 42 3d 70 9d 06 be
       0.034855526 -0.021593459 0.047375284 -0.13145995

arith.constant4 f4 [174, 50]
000000 5a 2d e3 3c c6 81 0a bd 0e 44 83 3c 9a dd 48 bd
       0.027731586 -0.033815168 0.016023662 -0.04903946
000010 2c 44 8a bc b0 e9 a9 3b 31 9d 0c 3d 40 0b 29 3c
       -0.01687821 0.0051853284 0.034329597 0.010317624
000020 c0 ce 47 bd 59 31 12 3d 82 64 f8 3c 8c a7 2d bc
       -0.048781157 0.035691593 0.030321363 -0.010599028
000030 33 5b fb bc 31 94 19 3d ad ba 34 3d 3a af c2 3c
       -0.030683136 0.037494842 0.04412334 0.023765195
000040 e8 e8 ed bb 87 d3 17 3d 00 3a 1a 39 91 1a 32 3d
       -0.0072604306 0.037066963 0.00014708191 0.043482367
000050 ee ff 84 3c 93 a2 dd bc 96 5c 12 bd 73 be 0d 3d
       0.016235318 -0.02705506 -0.035732828 0.034605455
000060 d9 9d 36 3d 68 1d 03 3c b7 bc 47 bd ba bf a8 3c
       0.04458413 0.008002616 -0.048763957 0.020599235
000070 b0 44 b0 bb d0 7d 6b 3b 98 73 92 3b 6d 94 d6 bc
       -0.005379282 0.0035933144 0.0044693463 -0.026193822
000080 36 6b 07 bd 4a 32 0c bd 40 43 44 bc d9 d0 0c 3d
       -0.03306123 -0.034227647 -0.011978924 0.03437886
000090 27 67 37 bd ed b8 2b 3d a6 3f a4 3c d0 15 83 bb
       -0.044776108 0.041924406 0.020049881 -0.004000403
0000a0 d1 f7 11 3d 98 d8 e2 bb 77 d0 32 3d 87 91 f3 bc
       0.035636727 -0.0069227926 0.04365584 -0.029732479
0000b0 83 a4 45 3d 20 35 bb bc 0d eb 04 bd 00 1d 1d bc
       0.048252594 -0.02285248 -0.032450724 -0.009589434
0000c0 ba 97 8d 3c e6 1c 91 bc 42 a2 97 bd 02 dd be bc
       0.017284263 -0.017713975 -0.07403995 -0.023298744
0000d0 9b 02 8b 3d cd 02 62 3d 65 9c 1d bd c0 09 ea 3c
       0.06787606 0.055178452 -0.038479228 0.028569102
0000e0 94 e5 da bc 09 74 07 bd 2d 75 83 bc 98 9d c7 3c
       -0.0267208 -0.033069644 -0.016047085 0.024367139
0000f0 82 74 55 3d e7 40 12 3b 26 a0 9b 3c 89 a3 8b bd
       0.052113064 0.0022316517 0.018997263 -0.06818301
000100 4d 46 c0 bc 16 c0 3b 3d 02 1b aa bb 1b 1e 07 3d
       -0.023471022 0.045837484 -0.005191208 0.032987695
000110 d1 61 ac bb a6 11 0c 3d 03 3e ca bc 92 e4 fd bc
       -0.005260684 0.03419652 -0.024687773 -0.03099278
000120 33 fa a6 bc 7e 32 2f 3c 8b fa 2d 3d 25 be 9e bd
       -0.020382976 0.010693191 0.042475265 -0.07751111
000130 13 fa 6e 3c 20 93 bd bc 3b 1a 01 3d 3b 6f 3e bd
       0.0145859895 -0.023141444 0.031519156 -0.046492796
000140 d1 aa 90 3d 51 7f e7 bc e7 66 3a bd f6 64 40 3d
       0.07063831 -0.028258951 -0.04550829 0.046971284
000150 79 6b df 3c da 0c 74 bd cf 30 cd 3b 0c ee 72 3c
       0.027272927 -0.05958257 0.006261922 0.014827263
000160 96 ea af bc 2e 38 77 3c 63 e7 e3 bc ca 7a 57 bd
       -0.021474164 0.015089078 -0.027820295 -0.052607335
000170 de c0 87 3c bc 5b 91 bc 1c d9 c9 bb 95 38 39 bd
       0.016571458 -0.017743938 -0.0061599147 -0.045219976
000180 93 4e 8c bc 0e 40 b1 bc a8 a6 b6 3c f0 3a 84 bc
       -0.01712731 -0.021636989 0.022296265 -0.016141385
000190 35 81 ef 3d 6d f6 00 3c 90 00 fa bc 34 aa 02 bb
       0.11694566 0.0078712525 -0.030517846 -0.0019937875
0001a0 7a b6 b1 bc bc 00 4e bd ba 89 5c 3d 59 8f 86 3d
       -0.021693457 -0.05029367 0.053842284 0.0657031
0001b0 1b dd 3b 3b 3c 28 1a bd 8d e8 a1 bd 8c f8 71 3d
       0.0028665725 -0.037636027 -0.07905684 0.059074923
0001c0 d7 02 c9 3c b0 f5 ae bd 9e 23 21 3d 82 70 4e be
       0.024537487 -0.08542955 0.039340608 -0.20160106
0001d0 f2 65 53 bc 67 d3 ef bc 0a aa e1 3d 55 2b 59 3c
       -0.012902724 -0.02927561 0.110187605 0.01325496
0001e0 4e 13 77 bc 36 03 8c 3d f8 25 c4 3c 39 67 77 bd
       -0.015080286 0.0683655 0.023943886 -0.060401175
0001f0 5d 29 30 3d eb ae 85 bd 55 e9 e3 bd 4b 1d 27 bd
       0.043008197 -0.065275036 -0.11128489 -0.04079942
000200 17 c4 f8 3d 17 b3 5d 3c 9c cc 24 bb d3 65 08 3e
       0.12146776 0.013531468 -0.002514637 0.13320093
000210 2e fb 47 bd 47 81 8d bd f9 f1 81 bd d6 a6 e6 bc
       -0.048823528 -0.06909423 -0.06344981 -0.028155725
000220 94 43 09 bb 7c 87 6c bd bd 19 60 bd bf 65 5d 3b
       -0.002094482 -0.057746395 -0.054712046 0.003378257
000230 80 bf 9b 3d 05 cb 4b 3d 75 b0 77 bd ec ac 3c bd
       0.07604885 0.04975416 -0.060471017 -0.04606335
000240 db d7 df bd 9c 15 56 3c 14 55 0c bd 95 bd 3d 3d
       -0.10929843 0.0130666755 -0.034260824 0.046323378
000250 b7 f7 3c 3d 5a 79 2f 3d ef a4 ed bc c4 ed 64 3d
       0.046134677 0.04284034 -0.02900931 0.055890813
000260 7c 35 15 3e f1 74 a0 3d 91 7a b1 bd 54 82 9a 3d
       0.14571184 0.07834805 -0.08665956 0.07544389
000270 46 e2 48 3d ed 71 ae 3d c4 91 be 3d e5 32 98 bd
       0.049043916 0.08517823 0.09305146 -0.07431582
000280 66 1d 72 3d 93 0a 0f 3e 69 85 6a 3d 9c f7 28 bd
       0.059110068 0.13968877 0.057256136 -0.041251764
000290 46 1a c1 bd 61 9d a2 bc 7f 05 95 bd dd b9 b3 3b
       -0.094288394 -0.019850435 -0.07276439 0.005484803
0002a0 10 f7 7b bd 8d b7 7a 3d dc b4 e1 bd d0 f3 9a 3d
       -0.061514914 0.061210204 -0.11020824 0.07566035
0002b0 cb de 34 bd e4 18 2d 3d 08 ad ee 3d 93 4b fe bd
       -0.044157784 0.042260066 0.11654097 -0.124167584
0002c0 2c b1 1b be 35 14 56 bd 35 a1 4b bd 18 f2 ce bd
       -0.15204304 -0.052265365 -0.049714286 -0.101047695
0002d0 bb b5 f1 3d 3f ad a2 bd 6e ae 84 bd ba 70 62 3d
       0.118022405 -0.079432 -0.06478582 0.055283286
0002e0 62 37 78 bd 94 84 f7 bd 74 29 91 3d 69 86 34 3d
       -0.060599692 -0.12085834 0.07087985 0.044073496
0002f0 4e 4d e9 bd 9d 8f 8b 3d d7 65 fc 3d ba f3 45 3d
       -0.11391698 0.068145014 0.12324112 0.04832814
000300 cb 12 6d 3d c2 2c 0d 3e fc 2e a1 3d 63 e0 53 bd
       0.05787925 0.13786605 0.0787029 -0.051727664
000310 10 e9 01 3e 7c aa db bd 39 64 93 3d cc 58 10 3d
       0.12686563 -0.10725877 0.0719685 0.035240933
000320 39 af 2f be a7 5c b3 bc ce 34 07 bd 8d 10 35 3d
       -0.17156686 -0.021894766 -0.033009343 0.044205237
000330 8b b4 af 3c fc 09 6d 3d a9 09 af bd 60 c0 04 bd
       0.021448394 0.05787085 -0.085467644 -0.032410026
000340 5e e0 cd 3b 81 5f eb 3d c5 8d 71 3d c1 79 c8 3c
       0.00628285 0.11492825 0.058973093 0.02447212
000350 a6 29 87 bd 59 2c 41 bd 70 fc ff 3c f0 09 b1 39
       -0.06599741 -0.047161434 0.031248301 0.00033767475
000360 a3 68 59 bd b1 a3 0d 3e cb ce a9 bb b2 9b 5d 3d
       -0.053078305 0.13831975 -0.0051821223 0.05410356
000370 a1 bd 7c 3d 74 de c7 bd 28 ae 0f bd ea 14 da 3c
       0.06170428 -0.097592264 -0.035078198 0.0266213
000380 36 e9 a8 3a 25 35 0a 3d 61 8f 8f bd 3d 63 91 bc
       0.0012886885 0.03374209 -0.07009769 -0.017747516
000390 21 fc 9a 3d 2c 50 6a bd 08 1b 86 3d fe dd d2 3c
       0.07567621 -0.057205364 0.065481246 0.02574062
0003a0 bc 12 58 bc 59 24 16 bd 29 27 e6 ba 4c f8 2b bd
       -0.01318806 -0.036655758 -0.0017559278 -0.04198484
0003b0 b1 1d 98 bc b3 07 71 bd 82 fa 08 bd fd d5 a2 bd
       -0.018568845 -0.058845233 -0.033442028 -0.07950971
0003c0 0f d1 9d 3d e7 d2 8e 3c 45 1b e1 3d e1 3f 1e 3c
       0.077058904 0.01743455 0.109915294 0.009658785
0003d0 71 a0 ac bd d8 cb da bb b5 86 64 39 1f ce 03 3d
       -0.08429039 -0.006677132 0.00021793957 0.032178994
0003e0 e0 21 fd bd d7 6c 1a 3d aa 01 89 3d 36 5b 0f 3d
       -0.12359977 0.037701454 0.066897705 0.034999095
0003f0 bb fb 9d 3c 1f 7e c6 bc 09 67 8b bd 0a f9 08 3d
       0.019285074 -0.024230061 -0.06806762 0.033440627

arith.constant5 f4 [174]
000000 0e f8 d3 bd 9b 15 9d 3c 25 35 9d 3c 03 11 18 3d
       -0.10350047 0.019175341 0.01919038 0.0371256
000010 33 2c 8e 3c 4d 7f 5a 3d 65 f8 01 bb 91 d6 b3 3c
       0.01735506 0.05334406 -0.0019831893 0.0219529
000020 e9 a2 b7 3b 90 2a 00 3d 29 0d 83 3c 36 11 3c 3c
       0.005604137 0.03129059 0.015997486 0.011478713
000030 89 13 1e bb 5b 9e a3 ba ef b1 8e 3c b8 f3 0a 3c
       -0.002412053 -0.0012483107 0.01741883 0.008480959
000040 43 e1 07 3c 21 24 b8 3b 79 34 8b 3c 5f 2a ec 3c
       0.008293453 0.0056195413 0.016992794 0.028828798
000050 b5 4d f5 3b 98 98 9f 3c eb ad cb 3c 84 c5 a0 3b
       0.00748607 0.019481942 0.024863204 0.004906358
000060 d1 03 58 3d e1 8f 7a 3c 34 63 c4 3b 88 07 84 3c
       0.052738015 0.0152930925 0.0059932712 0.016116872
000070 46 5e a3 3c 3d 0f 13 bc 50 3b f4 3c a5 8f 18 3c
       0.019942414 -0.008975801 0.029813439 0.009311591
000080 e0 4b 87 bb 37 dd 49 3c c9 26 0d 3d cd 26 1a 3d
       -0.004128918 0.012320808 0.034460817 0.03763466
000090 38 48 3c 3c 7e 79 ed 3c 88 7b 2e 3c 06 f4 23 3c
       0.011491828 0.028988596 0.010649569 0.01000691
0000a0 ae 7d c6 3b 2f 14 0c 3c bb 6f 63 3c 4f 96 bb bb
       0.0060574627 0.008549734 0.013881619 -0.0057247053
0000b0 e0 3b 28 3c 4c c1 70 3c 6a cd 03 3d 62 f8 25 bb
       0.010268182 0.014694523 0.03217832 -0.002532505
0000c0 e0 d5 d2 ba a5 e7 a2 3c ff 4e d7 3c c2 02 d3 3c
       -0.0016085468 0.019885847 0.026282785 0.025758151
0000d0 0c 38 ba ba a6 82 61 39 f7 5a ba 3b 70 c1 31 3c
       -0.0014207377 0.00021506342 0.0056871134 0.010849342
0000e0 7a 71 4e bc ba d0 a6 3c 61 f5 54 3c 19 81 2b 3c
       -0.012600297 0.0203632 0.012997956 0.010467791
0000f0 b4 b0 9d bc 6b 5b 8c 3c 23 c4 83 bc ff af f7 bb
       -0.019249298 0.017133435 -0.016084736 -0.007558822
000100 aa 54 98 bc 75 9e 64 bc fe 66 94 bc 80 b0 e3 3a
       -0.018595058 -0.013953795 -0.018115517 0.0017371327
000110 90 53 ab bc 3b 65 a3 bb 2d 8b 9b 3b cf 9f 2b 3b
       -0.02091387 -0.004986433 0.0047468157 0.0026187783
000120 66 02 41 bc e2 fc 19 bc c2 92 95 bc 57 5e d2 bb
       -0.011780357 -0.009398671 -0.018258456 -0.0064199376
000130 e9 64 ab bb 45 49 24 bc 21 d1 20 bc 77 f9 43 3b
       -0.0052305353 -0.010027234 -0.009815485 0.0029903331
000140 5b e3 1a bb a9 41 cc bc bc 23 ea bc f3 bd f4 3a
       -0.002363405 -0.024933653 -0.028581493 0.0018672332
000150 de bf 20 bc 7e 49 3f bc c3 55 09 bc 95 43 41 bb
       -0.00981137 -0.011675237 -0.008382264 -0.0029489745
000160 9f 74 a8 bc f4 6c b1 bc 64 d0 b7 bc 71 e1 a4 3b
       -0.020563422 -0.021658398 -0.022438236 0.0050317575
000170 6b 4e dd bb ed 32 7a ba 53 a1 cc 3b 59 d0 ea ba
       -0.006753733 -0.00095443317 0.0062448173 -0.0017914876
000180 00 e3 d0 bd d4 d2 19 bd 29 31 33 bd 9d d8 4c bd
       -0.10199547 -0.037554577 -0.043748055 -0.050011266
000190 54 4d 0a bd 5c d4 25 bd f3 1d 07 bd c7 2e 2a bd
       -0.033765152 -0.040485725 -0.032987546 -0.041548517
0001a0 2f 7f 55 bd 9a 5c 32 bd af 3c 0e bd 82 bd 3a bd
       -0.052123245 -0.043545343 -0.03472584 -0.045590885
0001b0 32 cd 23 bd 7c dd 1c bd 2c b7 a7 bc a0 3d c8 bc
       -0.03999061 -0.03829716 -0.020473085 -0.024443448
0001c0 0b 38 d9 bc 95 c7 ca bc 52 7a c5 bc bf 20 08 bd
       -0.026515981 -0.024753371 -0.024106178 -0.033234354
0001d0 4c 03 eb bc f6 b6 f3 bc 72 63 0c bd 6d a2 cf bc
       -0.028688096 -0.029750329 -0.034274526 -0.025346005
0001e0 68 45 2d bd 91 5b 0a bd 92 5f e1 bc 20 80 09 bd
       -0.04230252 -0.03377873 -0.027511392 -0.033569455
0001f0 7d 63 04 bd 54 2a bc bc 46 d9 ef bc 55 d5 da bc
       -0.032321442 -0.022969402 -0.029278409 -0.026713053
000200 23 ba c6 bc 97 4f 00 bd 17 45 20 bd 1f af 1e bd
       -0.024258679 -0.031325903 -0.03912839 -0.038741227
000210 8c 08 2a bd 71 c5 1c bd 6a 55 39 bd be 4b 14 bd
       -0.041512057 -0.038274232 -0.045247473 -0.036205046
000220 ee 8a 17 bd 2b 38 22 bd f0 bf ca bc b8 9d 21 bd
       -0.036997728 -0.039604347 -0.024749726 -0.039457053
000230 96 8f 0b bd eb c2 2e bd 17 cc 19 bd c7 02 0c bd
       -0.03407248 -0.042666357 -0.03754815 -0.034182336
000240 ed 38 f5 bc ae 14 f6 bc 51 df 13 bd f0 8a 06 bd
       -0.02993437 -0.030039158 -0.036101643 -0.032847345
000250 0d e1 f5 bc a6 60 e3 bc dd 79 0a bd cf fe 12 bd
       -0.03001454 -0.027756047 -0.033807624 -0.035887536
000260 3a 21 04 bd 54 c4 ee bc a0 f4 17 bd 23 68 00 bd
       -0.03225825 -0.02914635 -0.037098527 -0.031349313
000270 cd 14 20 bd 73 c7 20 bd 4c 68 fb bc 43 2a 07 bd
       -0.039082337 -0.03925271 -0.030689381 -0.03299929
000280 97 0f 05 bd 20 a4 0a bd ca 02 29 bd b9 e6 14 bd
       -0.03248557 -0.033847928 -0.041262425 -0.036352847
000290 56 9d dd bc 24 fe 37 bd 72 fe c9 bc 95 00 0d bd
       -0.027052563 -0.0449201 -0.024657462 -0.034424383
0002a0 98 7f ea bc 0b ce 09 bd 65 a2 04 bd bb b0 10 bd
       -0.028625295 -0.033643764 -0.032381434 -0.035324793
0002b0 95 93 15 bd 76 6e 32 bd
       -0.0365177 -0.043562375

arith.constant18 f4 [400, 50]
000000 58 38 01 bc 8c 01 04 3d 44 1d fb 3b 97 3a 32 3e
       -0.007886969 0.032228038 0.007663401 0.17405163
000010 a3 7d 46 bd ef 20 b2 3d 87 d5 e0 3d 15 18 59 3d
       -0.04845966 0.08697688 0.10978227 0.053001482
000020 2d c9 5a 3d 55 af 03 bd 70 da ae 3b e7 2b fe bc
       0.053414512 -0.03214963 0.0053360984 -0.031026794
000030 f8 6c 16 3e e4 0f 12 be 05 39 e8 3a 03 3c 1c bd
       0.14690006 -0.14263874 0.0017717188 -0.03814317
000040 43 6f 1c be c0 b6 8d 3d 9e a3 59 3c 82 ec 52 3d
       -0.15276818 0.069196224 0.013283638 0.051495083
000050 ed c1 25 be 12 8a 74 3d a3 ae 8f bc e6 13 d7 3d
       -0.16187258 0.059701987 -0.017539328 0.10501842
000060 58 31 2e 3e af 50 ea bc 17 a1 11 be 72 a6 06 3d
       0.1701101 -0.028602926 -0.14221607 0.03287358
000070 a8 38 4b 3e 1e 65 2b bd 5d 12 8e 3d 54 50 b6 3d
       0.19845831 -0.04184448 0.06937096 0.0890204
000080 f5 ce 12 be 11 8e a1 bd 1b e4 03 be ca 73 1a bd
       -0.1433676 -0.07888425 -0.12879984 -0.03770808
000090 be 9e 48 3e 4a 50 99 bd 4e 6a 05 be 93 0f 3e bc
       0.19591805 -0.07486017 -0.13028833 -0.011600393
0000a0 ca a4 0b 3e 7c cf 56 3e 5e c7 99 3d 2a 2d ec ba
       0.13637081 0.20977587 0.075087294 -0.0018018831
0000b0 b7 32 0f 3b 93 3d 15 3c 75 15 fb 3d 30 61 ad 3c
       0.0021850297 0.009108919 0.12259952 0.021164507
0000c0 ea 71 0f 3d 6e ce 30 3e 25 5b 48 3e 2e 21 29 3e
       0.035020746 0.17266247 0.19566019 0.16516563
0000d0 c3 31 40 bc 1e af 39 bc 07 45 85 bc 53 74 0a be
       -0.011730614 -0.011333255 -0.016268266 -0.13520937
0000e0 b4 d6 f8 3d e2 99 85 3e 03 b0 b2 3d 19 06 53 be
       0.12150326 0.26093966 0.08724978 -0.20607795
0000f0 b2 0e 31 be 6b 4a 6f 3e f1 ce c8 3d ec 38 4d be
       -0.17290762 0.23368232 0.09805096 -0.20041245
000100 42 02 d6 bd a3 85 23 be d1 a6 66 bd 9c a9 a0 bd
       -0.104496494 -0.15968947 -0.056311432 -0.078448504
000110 23 b6 7b 3d e1 0b 0a 3d 3e 66 be bd 28 13 64 3e
       0.061452996 0.033702735 -0.09296845 0.22272933
000120 03 63 c8 bd 71 da f1 3c 52 7f 90 3d 68 ce 02 be
       -0.0978451 0.029523106 0.070555344 -0.1277405
000130 bf c2 47 bc c8 c6 3d be 90 d0 ff 3d 9b 90 0b be
       -0.012192427 -0.1853286 0.12490952 -0.13629381
000140 58 1a d9 3d f4 b5 94 3d 18 c8 26 be e1 0b 18 be
       0.10600728 0.07261267 -0.16287267 -0.14848281
000150 5d 3c 88 be 57 d9 39 be 2c 92 13 3e 47 2c 2c be
       -0.26608554 -0.18149315 0.14411229 -0.16813765
000160 25 86 50 bd 3f d5 56 3e b4 e1 29 3d 67 cc 77 3d
       -0.05090918 0.20979784 0.041475013 0.060497668
000170 17 0e 0f be 4b 82 11 3d 69 e0 2c be ec 3b a2 3d
       -0.13970219 0.035524648 -0.1688248 0.079215854
000180 ce 9d 7f bd a1 2e 9f 3c d5 42 1f 3d a5 66 74 3d
       -0.062406354 0.019431414 0.038882095 0.059668202
000190 f7 ed ab bd 81 6b b1 bd 8f 45 af 3c b8 76 04 3e
       -0.083949976 -0.08663083 0.021395473 0.12935913
0001a0 60 61 42 bc bf 27 04 3e 86 cd 92 bd 8f 78 d4 bc
       -0.011864036 0.12905787 -0.07168107 -0.025936393
0001b0 0c 0b b4 3d 7e 77 cb bd a5 34 e4 3d 91 18 14 3e
       0.087911695 -0.09934901 0.11142854 0.14462496
0001c0 a0 6b 37 bd f2 74 7b 3d 26 af 66 bd d9 06 70 3c
       -0.044780374 0.061390825 -0.05631938 0.01465007
0001d0 99 ec fc 3c 32 99 2a 3d c9 e4 65 bd bb c5 ed 3d
       0.030874537 0.041650005 -0.05612639 0.1160998
0001e0 27 4d 34 bc 5b e5 b8 bd c0 d5 90 bc 5a 3a ba 3d
       -0.011004723 -0.09028121 -0.017680049 0.09093161
0001f0 05 68 01 3e 95 13 0a 3d 06 3c dc 3b 6c 8f be 3d
       0.12637337 0.03371008 0.0067210225 0.09304699
000200 f6 e5 1d bd 22 73 fc bd d4 14 53 bd 3b 04 d7 bd
       -0.038549386 -0.12326647 -0.051533535 -0.10498854
000210 91 42 b2 bd aa 01 95 3d 22 89 08 bb ce a5 b9 bb
       -0.08704103 0.07275708 -0.002083369 -0.0056655174
000220 43 cb b3 3d c7 e4 0f bd 5b d9 6a bd 82 e8 16 bc
       0.087790035 -0.03513029 -0.057336193 -0.009210708
000230 b6 43 14 3e 71 26 84 bd 40 bf 46 3d a0 a7 82 3d
       0.14478955 -0.064526446 0.048522234 0.06379628
000240 50 20 ed 38 31 32 fd bd a1 49 1b 3e e2 88 68 3c
       0.00011307059 -0.12363089 0.15164806 0.014192792
000250 d8 2e c4 3d 9f a3 1e 3e 1e 9b 46 bd 60 81 00 bd
       0.09579247 0.15492104 -0.048487775 -0.03137338
000260 c7 06 8e bc da 1f 81 3d 6a 94 09 be e9 f8 a3 3b
       -0.017337216 0.06304903 -0.13435522 0.0050040376
000270 14 2d 01 3d 11 c6 97 bc 0e 82 fc bc a9 19 87 bd
       0.03153713 -0.018527063 -0.030823734 -0.06596691
000280 21 94 66 bd d3 eb 1d 3d 9f a6 90 3d 22 a7 db 3d
       -0.05629361 0.038554978 0.070630305 0.107252374
000290 74 56 10 be 8a 85 21 3d fb af 11 be c6 f0 86 3d
       -0.14095479 0.039433993 -0.14227287 0.06588893
0002a0 93 03 07 3d aa 0b e1 3d 5a e0 1c be 40 36 bb bd
       0.032962393 0.10988553 -0.15319958 -0.09141207
0002b0 e8 6c 07 bd 67 90 7a 3c 69 11 5a 3d bd 30 8d bd
       -0.033062845 0.015293217 0.05323926 -0.06894062
0002c0 4a ec 15 bd c6 38 89 bc 2b 6b 2d be 09 a3 c8 bd
       -0.036602296 -0.016750704 -0.16935413 -0.097967215
0002d0 c7 1a 46 3c 15 87 1e be f8 0d 82 bd 53 b7 8a 3c
       0.012091345 -0.15481217 -0.063503206 0.016933119
0002e0 ad 3d 33 3d f5 e2 8e bd ef 75 a2 3d 79 9e aa 3d
       0.04375999 -0.06976882 0.0793265 0.083310075
0002f0 ad 41 ce 3c ab 21 58 3d 48 13 b8 bd d8 41 4b bd
       0.025177801 0.052766483 -0.089880526 -0.04962334
000300 fa 73 f4 3d f0 07 8d 3d 1e b0 85 3d 38 07 0d be
       0.11936183 0.068862796 0.06527732 -0.13772285
000310 ea 64 77 3d 24 23 11 bd 93 a8 04 3e f1 09 ec bd
       0.060398974 -0.035433903 0.12954931 -0.11525334
000320 b1 f8 e6 3d 54 fb 8c bc 24 ed 13 bd d2 ce 37 bd
       0.11277903 -0.017209686 -0.036114827 -0.044874974
000330 91 a8 c0 bd 2e 5b 7a bd bc 2a de 3d 24 32 2a 3e
       -0.094071515 -0.061122112 0.10847995 0.1662069
000340 cc 2b e1 3c 6e 86 e2 bd 9e b9 cc 3d 5e d9 50 3d
       0.027486704 -0.11060797 0.09996341 0.050988548
000350 92 9c 0c 3e 28 c0 90 bd e2 9d 51 bd 7f fa b0 bc
       0.13731602 -0.07067901 -0.05117596 -0.02160382
000360 11 87 c3 bc 04 66 47 bd f8 17 d2 bd 6c 03 1d bd
       -0.023868116 -0.048681274 -0.10258478 -0.03833334
000370 c3 b4 dd bd 37 d7 28 bc fc c1 e5 bd e7 3e 4f bd
       -0.10825493 -0.0103052175 -0.1121864 -0.050597098
000380 1f d3 6d bd 6f 77 0f be cf f2 f6 3d 54 2f 62 3a
       -0.05806267 -0.14010404 0.12058031 0.0008628268
000390 72 f6 b5 3c 3b ad a2 bd bf f5 8f bd b3 4e 09 3e
       0.02221224 -0.07943197 -0.07029294 0.13408928
0003a0 10 0e a1 bc cd 41 c3 3a ba 66 09 3d 9a 2c 19 bd
       -0.019660026 0.001489693 0.033545233 -0.03739605
0003b0 b9 94 13 bd 14 3a aa bd ae 27 7a bd d8 b1 60 bc
       -0.036030505 -0.08311859 -0.061072998 -0.013714276
0003c0 26 61 56 ba e0 13 08 3b d4 97 df bd ab 2d ea 3c
       -0.00081779284 0.00207638 -0.10917631 0.02858623
0003d0 d4 a0 8b 3d 95 45 ca bc 46 1e 18 bd 8c f6 1e bd
       0.06817785 -0.024691382 -0.037138246 -0.038809344
0003e0 f9 f3 09 bd cb 41 83 3c bb 26 35 bd 27 c2 5c bd
       -0.033679936 0.016022583 -0.04422639 -0.053896096
0003f0 20 94 03 3c 97 74 fe 3c d4 d9 ed bd e7 9e 75 3d
       0.008030921 0.031061454 -0.11613813 0.059965994

arith.constant19 f4 [400, 100]
000000 21 5a 86 3d 57 ca 00 be e6 38 8e 3d 48 e3 e1 3d
       0.065601595 -0.12577187 0.06944446 0.110296786
000010 99 19 29 3e 40 97 26 3d ee 2c 2a 3d 21 5b 51 3d
       0.16513671 0.040671587 0.041546755 0.051112298
000020 91 25 ca 3d 22 1d d7 3c 2a b9 83 3d c0 65 6b bd
       0.098704465 0.026259009 0.064318016 -0.057470083
000030 a3 9a 1a 3d 8f 8a 4a 3d 6f e5 af 3d b4 a3 dc 3d
       0.03774513 0.049448546 0.08588683 0.107734114
000040 4d 18 2c bc eb 00 07 3d a2 26 62 bd c2 86 0f 3c
       -0.010503841 0.03295986 -0.055212624 0.008760156
000050 fd b1 04 be 54 78 c3 3d 75 6e 75 bd ff 30 1c 3e
       -0.12958522 0.09544435 -0.059919793 0.15253066
000060 ce d6 0f bc 32 e0 d3 bd 6b 6f dc 3d 58 01 a1 bd
       -0.008779241 -0.10345496 0.10763439 -0.078615844
000070 a2 0a 2b 3d f1 db 68 3c 02 f8 4b 3c 3e ec 50 bd
       0.041758187 0.014212594 0.012449266 -0.051006548
000080 76 e0 c3 3d 26 8e f4 bc 26 e2 93 3d f2 19 84 3d
       0.09564297 -0.029852938 0.07220869 0.06450261
000090 45 a2 4d 3d e2 3c a1 3d 88 f5 d8 bc 7b 36 09 be
       0.05020358 0.078729406 -0.026484266 -0.13399689
0000a0 44 ee 24 3e 1b 96 ab 3d cf f4 0a 3e 2a b0 2a 3e
       0.16106516 0.0837824 0.1356995 0.16668764
0000b0 58 57 1a 3d 99 02 55 3d d4 91 d3 3c db 46 de 3d
       0.037680954 0.05200443 0.025826372 0.10853358
0000c0 9b d4 f9 bc d1 05 fa bd 6e 41 85 3d b5 8b 5a 3d
       -0.030496886 -0.12208141 0.0650662 0.05335589
0000d0 31 07 20 bd fe d8 76 3d 4c 7c 28 bb 57 57 75 bd
       -0.03906936 0.060265534 -0.0025708852 -0.059897747
0000e0 97 cb c4 bd 60 c2 ec bd 01 74 35 3e e2 09 88 3d
       -0.09609144 -0.115605116 0.17720033 0.0664251
0000f0 c0 da 79 3d e4 a7 f4 bc 68 fb e7 3d c0 a7 19 bd
       0.060999632 -0.029865213 0.11327249 -0.037513494
000100 df 85 99 3c 1f 84 89 bc 6d d9 a6 bd cc 30 02 be
       0.018740593 -0.016786633 -0.081469394 -0.12713927
000110 50 1e 82 3d aa 61 c2 bc 00 0d f4 bc df d2 a9 bb
       0.06353438 -0.02372821 -0.029791355 -0.0051826085
000120 0f fb 38 3e 3c b7 a8 3d 1b 94 b1 3d f2 49 c1 3d
       0.18064521 0.08238074 0.08670827 0.09437932
000130 2e 36 79 3d 39 06 f2 3d 8d 1b 85 3d e0 14 8a bd
       0.060842685 0.11817593 0.064993955 -0.06742263
000140 56 77 22 3e c5 92 54 bd cc d9 80 3d c0 5e 4a 3d
       0.15865836 -0.051897783 0.062915415 0.049406767
000150 fb f3 4f 3d 8d 51 12 3e b6 89 c5 bd d0 9b 45 bd
       0.050769787 0.14288922 -0.09645407 -0.048244298
000160 97 8d 63 3d dd 52 1d bd 7f 51 01 3d dc 3d 3c 3c
       0.055554952 -0.038409103 0.03157186 0.011489358
000170 e7 d8 9a bd 93 20 2a be 02 44 74 3d 4c 60 b4 3d
       -0.07560902 -0.16613989 0.05963517 0.0880743
000180 4b 41 bc 3d bd ea 25 be 50 46 66 3d 0a 49 48 3e
       0.09192141 -0.16202827 0.0562194 0.19559112
000190 34 b8 69 3d 0a af 07 be e6 3f f7 3d bc 9a bd 3d
       0.057060435 -0.13250366 0.120727345 0.09258029
0001a0 4a e7 05 3e cc a6 5e 3d 13 a5 34 3d 44 be 31 3e
       0.13076511 0.05435829 0.04410274 0.17357737
0001b0 b7 66 d8 3d 96 6a c1 3d 46 99 4a 3e 89 86 61 bd
       0.10566466 0.09444158 0.19785032 -0.055059943
0001c0 21 c2 d2 3c 28 5a 69 3d 0c 5b 4c 3d 82 57 a4 3d
       0.025727334 0.056970745 0.049891517 0.08024503
0001d0 3a d4 6e 3d ca 01 92 3d a4 8f 55 bd 82 c1 24 3d
       0.058307864 0.071292475 -0.05213894 0.040223606
0001e0 52 c6 f3 bd 97 16 29 ba c3 c3 8e bd a7 98 b6 3d
       -0.11903061 -0.00064502045 -0.06970932 0.08915835
0001f0 24 98 d6 bd 41 7d af bd 03 86 f1 3d 50 98 43 be
       -0.10478237 -0.08568812 0.11793139 -0.19101071
000200 dc 2c e0 3d be e6 02 3d 09 fb 0f 3e f7 1d 8b bd
       0.10946056 0.031958334 0.14060606 -0.06792825
000210 20 cc d3 3d f8 5b 2f 3e 48 94 11 3e fa 12 c4 3d
       0.10341668 0.17124927 0.14216721 0.09573932
000220 c4 92 f4 3d cd d9 18 3e 01 72 41 bd 85 37 05 be
       0.11942056 0.14926834 -0.047227863 -0.1300946
000230 99 88 bb 3d c6 f0 07 3d 40 6d 7f 3d 99 00 8f 3d
       0.09156913 0.033188604 0.06236005 0.06982536
000240 b3 5b ef 3d 89 0e dd 3d 5e 77 1c 3e 15 85 5a 3e
       0.11687412 0.10793788 0.1527991 0.2133983
000250 fb 98 12 be 2b 19 ff bd 75 26 a1 3d 8f 38 f3 bc
       -0.1431617 -0.12455972 0.07868663 -0.029690055
000260 e2 ef 86 3c 90 cc b1 3d e7 02 3f 3d 06 76 0a be
       0.016471807 0.08681595 0.046633627 -0.13521585
000270 43 77 45 be 6c c7 46 be 4b cc 23 3e 9b 34 68 3d
       -0.19283776 -0.19412011 0.159959 0.056690793
000280 66 56 9f 3d e9 12 20 bd 75 7e 09 3e e9 4b 18 3e
       0.07780151 -0.039080534 0.13427146 0.14872707
000290 29 fb 1f 3e b5 89 c9 bd ac 96 b3 bd c2 18 20 be
       0.15623154 -0.09840719 -0.08768973 -0.15634444
0002a0 2a 42 0e 3e 1d b1 e0 3c 61 3d 01 be f4 43 06 be
       0.13892427 0.027428204 -0.1262107 -0.1311186
0002b0 1b 22 aa 3c 43 34 36 3e be f3 65 3d 0d fc 09 3e
       0.020768216 0.17793374 0.056140654 0.13475056
0002c0 41 d2 a1 3d 25 18 c5 3c 17 de 15 3e b2 62 ae bd
       0.07901431 0.024059365 0.14635502 -0.085149184
0002d0 5b 24 2f 3e ad 3e 04 be ed 03 ec 3d 83 71 35 3e
       0.17103712 -0.12914534 0.11524186 0.17719083
0002e0 d0 3f c4 3d e0 b7 25 3e 86 9f 21 be aa 76 43 be
       0.09582484 0.16183424 -0.1578351 -0.19088235
0002f0 04 b3 1a 3e a2 eb 11 bd d1 b2 ae 3d c4 1b d6 3d
       0.15107352 -0.035625108 0.085302 0.104545146
000300 18 54 b8 bd 98 ac a6 bd eb a4 3e bd 33 da 24 3d
       -0.090004146 -0.081383884 -0.046543997 0.040247153
000310 76 f9 26 3e 27 d7 bf bc a4 b8 09 3e 03 d6 b8 3d
       0.163061 -0.023418022 0.13449341 0.090251945
000320 ed 08 b2 3d e0 0c a3 bb 77 42 05 3d c3 71 5b 3d
       0.08693109 -0.0049759 0.03253409 0.05357529
000330 d2 84 29 3c e6 1d 4e 3d 0d 70 a8 bc a9 21 8a 3d
       0.010346608 0.050321482 -0.020561242 0.067447014
000340 56 fc af 3c 9f b3 b6 3d 8b 68 31 bd 9d bc 4c 3d
       0.021482628 0.08920979 -0.04331259 0.049984563
000350 89 44 13 3c f7 74 24 3d 02 4d 17 3c b4 95 97 bb
       0.008988508 0.04015061 0.009234669 -0.0046260003
000360 ee 57 b0 3c 3f 45 28 bd 9c d2 15 bd c1 da a2 3d
       0.021526303 -0.041081663 -0.036577806 0.0795188
000370 a4 31 57 bd 96 18 a9 3d 92 4b 48 bc 39 c6 84 3d
       -0.052537575 0.082566425 -0.012225049 0.064831205
000380 91 96 b3 bd b1 09 5f bc 21 bc d6 bb 4a d6 c2 bb
       -0.08768953 -0.01361315 -0.0065531884 -0.0059459554
000390 d6 be 9e 3c 96 d3 8b bd 2d ba 22 3e 78 eb 1e 3d
       0.019378107 -0.06827466 0.15891333 0.03879878
0003a0 ee f4 b4 3d 77 60 d5 3d 40 0a 13 3e e7 05 25 3d
       0.08835779 0.1041879 0.14359379 0.040288832
0003b0 c4 d4 d4 ba d4 3a 9c 3d d0 8d 27 bc 41 29 e6 3c
       -0.0016237726 0.07628408 -0.010226682 0.028095843
0003c0 64 a5 07 3e dc 90 d9 3b 11 ba 82 3d 38 5d ae bc
       0.13246685 0.006639583 0.063831456 -0.021284685
0003d0 3b 92 1d 3d fb 7f 82 bc 4c be b4 bc a5 e3 4e 3d
       0.038469534 -0.015930166 -0.022063397 0.050510067
0003e0 06 c9 5c bd 37 c8 84 bc a0 3c dc 3d 02 6f cc bb
       -0.05390265 -0.016208751 0.10753751 -0.006238819
0003f0 2c 9d bd 3d aa bd 87 3d 72 06 1f 3e 7a 32 86 3d
       0.09258494 0.066279724 0.15529802 0.065525964

sequential_1/lstm_1/while/lstm_cell_1/add_1/ReadVariableOp f4 [400]
000000 c8 2a b7 3d 63 d7 28 3e 9a d1 83 3d b2 e0 74 3d
       0.08943707 0.16488414 0.06436463 0.0597846
000010 a6 aa 59 3d 96 fc 30 3d 30 34 22 3d 9c e3 bb 3d
       0.05314126 0.043209635 0.03960055 0.091742724
000020 46 ba 3d 3d 8d fa 48 3d ec 25 79 3d 0a 55 1f 3e
       0.046320222 0.04906707 0.06082718 0.15559784
000030 ec 72 6e 3d 81 6a af 3d b2 7f 5c 3d 47 d9 23 3e
       0.058215067 0.08565236 0.053832717 0.16000853
000040 3e d9 42 3d 96 aa aa 3d 83 c0 6f 3d e5 0b 0b 3e
       0.04757046 0.08333318 0.058533203 0.13578756
000050 71 f7 5b 3d a1 b8 30 3e e4 ff 84 3d 63 01 d7 3d
       0.053702775 0.1725793 0.0649412 0.10498311
000060 a6 e3 e6 3d 55 39 1d 3e f8 af 46 3d aa 35 69 3d
       0.11273889 0.15353902 0.04850766 0.056935944
000070 a9 04 94 3d 16 18 4d 3e 01 e2 56 3d 7c 0c 3a 3e
       0.07227451 0.2002872 0.052461628 0.18168825
000080 bf f7 5a 3d 1c fc 3e 3d 21 af 44 3e b5 bd 32 3d
       0.053458925 0.04662715 0.19207431 0.04363795
000090 7f ff 7b 3d 1e 56 8f 3d 8a 00 18 3d 87 2a 93 3d
       0.061522957 0.069988474 0.03710989 0.07185846
0000a0 e6 c0 67 3d e4 b8 4f 3d 0b a1 10 3e c7 ac 76 3d
       0.056580447 0.050713435 0.14123933 0.060223367
0000b0 63 ba 51 3d 37 32 58 3d 88 81 67 3d 3c ca 36 3e
       0.051203143 0.052782264 0.056520015 0.17850584
0000c0 8c ea 84 3d 1a 59 44 3d ae ca 66 3d 05 d0 46 3e
       0.06490049 0.047936536 0.056345634 0.1941529
0000d0 29 b6 6d 3d 98 11 26 3e d4 55 6b 3d 2f 2f 3d 3d
       0.05803505 0.16217649 0.0574549 0.046187576
0000e0 b8 10 e8 3d c5 f7 57 3d 3e 10 37 3e 23 d4 be 3d
       0.11331314 0.052726526 0.1787729 0.093178056
0000f0 4d 5d 0d 3e 30 14 32 3e 80 26 76 3d d5 d4 5d 3d
       0.13805123 0.17390513 0.06009531 0.05415805
000100 fe f9 7d 3d cc a2 72 3d ab 3e 90 3d a0 70 0b 3e
       0.06200599 0.059237286 0.07043203 0.13617182
000110 b5 f7 5d 3d 3a 82 bf 3d 1e 4d 81 3d 18 ff 6d 3d
       0.05419131 0.093510106 0.06313537 0.058104604
000120 09 d6 7d 3d 67 b6 b4 3d a2 19 3c 3d cc fa 7a 3e
       0.061971698 0.08823853 0.045922883 0.24509734
000130 86 d8 42 3d 7f b6 b3 3d f2 30 61 3d e1 8f 26 3d
       0.047569774 0.08775043 0.05497832 0.040664557
000140 8b e4 7c 3d 05 23 d7 3d 7c 52 52 3d 44 f1 01 3e
       0.061741393 0.10504726 0.051348194 0.12689692
000150 0a 2b 3d 3d eb 84 92 3d 5a 65 53 3d c7 68 73 3d
       0.046183623 0.07154258 0.05161033 0.059426095
000160 35 aa a4 3d d3 80 75 3d c1 c5 90 3d eb f2 34 3d
       0.08040277 0.05993731 0.070689686 0.044176977
000170 71 f0 e9 3d 6b ca d6 3d 1d 90 7d 3d 00 82 64 3d
       0.11422814 0.10487827 0.061905015 0.05578804
000180 6a 86 15 3e f5 4b 2a 3d 2a 36 95 3d e2 30 b9 3d
       0.14602056 0.041576345 0.072857216 0.09042527
000190 90 ea 8b 3f 3b 38 95 3f 49 eb 88 3f 58 e7 86 3f
       1.0930958 1.1657785 1.0696803 1.053935
0001a0 80 ef 85 3f 28 e9 84 3f f1 cd 83 3f b7 ce 8b 3f
       1.0463715 1.0383654 1.0297223 1.0922459
0001b0 15 e8 85 3f bc 97 85 3f 33 f3 87 3f 7b f0 93 3f
       1.0461451 1.0436931 1.0621094 1.1557764
0001c0 56 f4 86 3f b9 12 8b 3f c6 2b 86 3f bb f9 94 3f
       1.0543315 1.0865089 1.0482109 1.1638712
0001d0 c8 2d 86 3f 7c d4 8b 3f 67 af 86 3f 67 c0 92 3f
       1.0482721 1.092422 1.0522279 1.1464967
0001e0 27 5d 86 3f 18 85 94 3f 85 cb 88 3f 6e d5 8c 3f
       1.0497178 1.1603117 1.0687109 1.1002634
0001f0 14 57 8e 3f a6 98 92 3f 67 c0 85 3f 25 fd 86 3f
       1.1120324 1.1452835 1.0449342 1.0546004
000200 46 5a 89 3f cf bc 99 3f 23 5b 86 3f 9b b1 96 3f
       1.0730674 1.2010745 1.0496563 1.1772951
000210 0d 3d 86 3f 86 f2 84 3f 1d 4e 99 3f 23 5d 84 3f
       1.0487381 1.0386512 1.1976963 1.0340923
000220 e8 34 87 3f 20 3e 89 3f e2 f8 84 3f 1d 1f 8a 3f
       1.0563021 1.0722084 1.0388453 1.0790745
000230 ae ee 85 3f ee 83 84 3f 8c f1 90 3f 0d dd 86 3f
       1.0463464 1.0352762 1.1323714 1.0536209
000240 08 f2 85 3f 0a 3e 86 3f b3 b6 87 3f 3d 37 99 3f
       1.0464487 1.0487683 1.060263 1.1969982
000250 2f bb 86 3f c1 d2 85 3f 5f bf 86 3f ed a7 98 3f
       1.0525874 1.0454942 1.0527152 1.1926247
000260 f8 19 87 3f 4c d7 93 3f 0c 5c 89 3f ee 9f 85 3f
       1.05548 1.1550078 1.0731215 1.0439432
000270 78 e9 8e 3f 8b b0 85 3f a2 82 96 3f 1b 84 8c 3f
       1.1164999 1.0444502 1.1758616 1.0977815
000280 0e 68 91 3f 71 44 97 3f ea 81 87 3f 83 b0 85 3f
       1.135988 1.1817762 1.0586522 1.0444492
000290 da 88 87 3f 47 b5 86 3f 75 6a 88 3f c5 37 93 3f
       1.0588639 1.0524071 1.0657488 1.1501395
0002a0 7d 2a 87 3f ec 62 8b 3f ac 9c 87 3f 71 e7 86 3f
       1.0559841 1.0889564 1.0594687 1.053938
0002b0 1c 53 88 3f f2 80 8c 3f cb 0f 87 3f d9 02 9d 3f
       1.0650363 1.0976851 1.0551695 1.2266494
0002c0 e7 61 85 3f d7 1a 8b 3f af c9 86 3f ec 1f 84 3f
       1.0420502 1.0867566 1.0530299 1.0322242
0002d0 6c 7b 86 3f c4 54 8d 3f 45 a7 85 3f 1b 9e 91 3f
       1.0506415 1.1041493 1.0441672 1.1376375
0002e0 ce 2f 85 3f 41 a1 88 3f e9 6f 86 3f 67 6d 87 3f
       1.0405214 1.0674211 1.0502902 1.0580262
0002f0 89 ae 8a 3f b6 9f 86 3f 1b 67 89 3f 68 e5 84 3f
       1.0834514 1.051749 1.073459 1.0382509
000300 a8 1a 8e 3f ae 3c 8e 3f a7 23 88 3f 76 72 86 3f
       1.1101885 1.1112268 1.063588 1.0503681
000310 19 01 94 3f cc e5 83 3f 59 7e 89 3f 20 ca 8a 3f
       1.1562835 1.0304503 1.0741683 1.0842934
000320 55 69 de 3c 0d 63 58 bb 7d 9f 0b bc 8e 19 14 3d
       0.027149836 -0.0033018023 -0.008521912 0.036157183
000330 e7 d8 0d 3d 49 f4 ed 3c 04 46 d1 3c f6 2f 64 3d
       0.034630682 0.029047148 0.025546081 0.0557098
000340 55 f1 bc 3c 07 1a 04 3d b6 14 cd 3c 9c ec 0c 3d
       0.023064295 0.032251384 0.02503429 0.034405336
000350 04 d4 d9 3c ee 3a 18 bc 17 c1 3b 3c 6c 0e e7 bc
       0.026590355 -0.009291394 0.01145961 -0.02820512
000360 43 a0 e7 3b 58 89 31 bc b4 e1 fc bc 7d 31 ef 3c
       0.007068665 -0.010835968 -0.030869342 0.029198403
000370 b2 23 0c bd a9 97 20 bd ef 78 e2 bc 6c d3 a2 3c
       -0.03421373 -0.039207134 -0.027645556 0.019876204
000380 e0 91 0e bd 15 0e cf bb 82 9c 13 3d bc d6 dd bc
       -0.034807086 -0.0063188174 0.03603793 -0.027079932
000390 a1 6d a0 bb 66 9e 92 bd fb a7 80 3c cc 21 35 3c
       -0.0048958813 -0.07159118 0.0157051 0.011055421
0003a0 5a 0c 02 3d 4e 37 b5 3c 79 ab 26 bd 5a 8a de 3c
       0.03175006 0.022121098 -0.040690873 0.02716558
0003b0 c6 81 a2 ba 60 b5 2e 3d 6f d4 e2 bc 21 24 f3 3c
       -0.0012398295 0.04265344 -0.027689187 0.029680314
0003c0 6c ac bd 3c a0 79 8e 3c cd 91 18 3d d5 db 1d 3d
       0.023153506 0.01739198 0.03724842 0.038539726
0003d0 b5 b3 92 3c 85 b6 f5 3c e7 44 f7 3c d9 db cc 3d
       0.017907957 0.029994259 0.030184222 0.1000287
0003e0 54 00 02 bd fd f0 6f bc d9 be 36 3d 95 b2 5a bd
       -0.031738594 -0.014644858 0.0446156 -0.053392965
0003f0 d5 41 ea 3c 30 aa 26 bc a0 7f 30 3c c0 dd 09 bd
       0.028595844 -0.010172412 0.010772616 -0.033658743

arith.constant23 f4 [400, 100]
000000 fd f4 85 3d cc e9 88 bd 47 1e 1b 3d e0 36 54 bc
       0.065408684 -0.06685218 0.03787067 -0.012952536
000010 c3 7f b9 3c 5e b2 e8 3d 3f f6 c2 3d a8 25 16 3e
       0.02264393 0.11362146 0.09519624 0.14662802
000020 f5 8e 64 3d 8b b0 15 3e 80 44 42 bd 7e c0 3f bd
       0.055800397 0.14618127 -0.047428608 -0.046814434
000030 a6 da fb 3d c7 f2 8f bc e2 63 b1 bc cd da 71 3d
       0.12297563 -0.01757182 -0.021654073 0.059046555
000040 c3 c8 fe 3d 7a 12 c0 bb 7f 4e 7a bd 0f 61 81 bd
       0.12440636 -0.0058615776 -0.061110016 -0.063173406
000050 4e 18 b0 bd 31 6d 98 3d 70 38 92 bd 05 a1 9d bc
       -0.08598386 0.074427016 -0.07139671 -0.01924182
000060 f7 2e d2 3c a6 21 98 3c b6 ed b9 b8 18 48 12 3d
       0.02565716 0.018570732 -8.8657645e-05 0.035713285
000070 6c ba 0e 3e e7 c7 c8 3d a9 cd 16 3e 2b 87 b5 bd
       0.13938302 0.09803753 0.1472689 -0.08863672
000080 22 af f3 3c af d6 8f 3d 01 ba 60 3d 3b 48 05 3d
       0.029746596 0.070233695 0.054864887 0.032539587
000090 dc ad 82 bc 9a 08 87 bc 9c 36 98 3c 1d 77 d0 3c
       -0.015952043 -0.016483594 0.018580727 0.025447423
0000a0 10 d6 1a 3e fe 57 95 3d b3 85 2f 3d 5b 11 07 3e
       0.15120721 0.07292174 0.042852115 0.13190214
0000b0 bc e5 e1 3c 6e 2b 1a 3e 9b c5 48 bd dc 63 62 bd
       0.027575366 0.1505563 -0.049016576 -0.055271015
0000c0 69 71 a3 3c 03 25 3c 3d 10 1b 20 3e 9c de 9c bd
       0.01995154 0.045933735 0.15635324 -0.07659647
0000d0 bb 79 18 3e 61 92 06 be c3 d4 06 bc 33 3f e1 bd
       0.14890186 -0.13141777 -0.008229437 -0.109983824
0000e0 76 f2 15 be 5f 80 20 be a1 29 cc bd 2a cc 99 bc
       -0.14643273 -0.1567397 -0.099688776 -0.01877411
0000f0 64 e2 a1 b9 17 9e 56 bd 5c 8a 81 3c 82 2e 1a 3e
       -0.00030876987 -0.05239686 0.015813045 0.15056804
000100 a3 96 a2 3b fe 22 4c bd 3c ed de bd 4a cd 22 be
       0.004961805 -0.04983806 -0.108850926 -0.15898624
000110 e0 2a c0 3b b2 ba 5e bd 3d 80 01 be a2 75 22 be
       0.005864486 -0.054377265 -0.12646575 -0.15865186
000120 f1 93 94 bd 80 a7 52 bd 27 f6 05 3d 08 fd 0f bc
       -0.0725478 -0.05142927 0.032705452 -0.008788355
000130 6e 21 69 3c 8f 25 63 3d 27 31 e8 bb 58 41 6a 3c
       0.014229162 0.05545574 -0.0070859375 0.014297806
000140 15 d9 0f bd db 5f 4e bd 2b 48 61 bd 33 3e 08 3d
       -0.035119135 -0.050384384 -0.055000465 0.033262443
000150 f6 15 80 bc d1 5c 43 3d 90 dc a6 bd b0 34 d2 bd
       -0.015635472 0.04769594 -0.08147538 -0.102639556
000160 56 ff f1 3d 8a e1 bc b9 ce 51 5e 3d 5b a0 1c 3d
       0.118162796 -0.00036026194 0.054277234 0.038238864
000170 76 88 02 3d 04 93 18 3d fe 18 31 bb 25 44 2d 3d
       0.03186842 0.03724958 -0.0027022953 0.042301316
000180 ea e6 5d 3d f7 c3 2b 3d 1e 48 ff 3d e3 08 49 3d
       0.054175295 0.041934934 0.12464927 0.04908074
000190 17 43 bc 3d 62 b7 19 3d 0e 9f 7b 3d 8c 1c 43 bd
       0.09192484 0.037528403 0.061430983 -0.047634646
0001a0 c4 1f 46 3d f8 93 95 bc 1b ff 1d 3c 52 71 88 3d
       0.048370138 -0.018259034 0.009643341 0.06662239
0001b0 03 5e 00 bd ec 1c c6 3d 1f 23 80 ba d4 25 87 3d
       -0.031339657 0.09673485 -0.0009776092 0.06599012
0001c0 95 19 9d 3d e1 e2 a9 3d 93 21 10 bd f5 c1 97 3d
       0.07670895 0.08295227 -0.03518827 0.07410041
0001d0 b3 ee db 3d 30 f1 c8 38 b2 e1 7d bb 64 eb 79 bd
       0.10738888 9.581668e-05 -0.0038739261 -0.0610155
0001e0 ca 15 84 3c c4 ea 11 3e 0e d5 fd bd 5a 12 ce bc
       0.016123671 0.14249712 -0.123941526 -0.025155235
0001f0 84 1c 79 bd 36 c5 91 3d c0 5a ed 3c 6c f2 6f bc
       -0.06081821 0.07117693 0.028973937 -0.0146452
000200 a4 08 11 3d 56 39 93 3d e5 fc b8 3d 26 7d b1 bc
       0.03540863 0.0718867 0.09032611 -0.02166612
000210 86 2c ff 3d 1c 10 86 bd 9c 15 13 3c e7 83 de 3b
       0.12459664 -0.06546041 0.00897732 0.0067906263
000220 af 22 b0 3d cc 79 b3 3a 08 fd c6 bd de 5e 2f 3c
       0.08600365 0.0013692915 -0.09716231 0.01070377
000230 22 7a ed 3c 8d f1 51 bd 59 ba bd bd c0 c0 48 bd
       0.028988902 -0.05125575 -0.092640586 -0.049011946
000240 07 a7 0b 3e b0 e4 16 3d 32 c0 b5 3d 17 82 9f bc
       0.13637935 0.036839187 0.08874549 -0.019471211
000250 1c 3a a7 3d d1 b6 f3 bd fb 15 b3 bc a5 f6 c2 3d
       0.0816538 -0.11900104 -0.021861067 0.095197
000260 20 82 fe 3d a8 57 ca bd 73 e5 52 3d 45 c1 7e bd
       0.12427163 -0.0988 0.05148835 -0.062196035
000270 82 c4 2c bd 3c f3 84 3d 95 12 01 bd 29 4a 9f 3d
       -0.042179592 0.06491706 -0.03151186 0.07777817
000280 ab 6b 6d 3d 8e e5 05 be 8a d5 d0 3d c5 21 3a 3d
       0.05796401 -0.1307585 0.10196979 0.04544236
000290 16 6f 77 3d 61 bf 9b 3d 84 b6 8e bd e7 88 d8 bd
       0.060408674 0.07604862 -0.06968406 -0.10572987
0002a0 63 29 cf 3b ef 04 58 3d 14 7e ed bd c1 c0 e2 bd
       0.0063220724 0.05273908 -0.11596313 -0.11071921
0002b0 06 6f 1a bc 51 eb aa 3c b8 d9 28 3b b8 09 23 be
       -0.009425884 0.02086416 0.0025764536 -0.15921676
0002c0 34 02 5a bb 90 56 cf 3d f6 39 90 3d 5a ef 1f bd
       -0.0033265473 0.10123932 0.07042305 -0.039046623
0002d0 72 1b 21 3d a8 10 31 3d a7 d9 d1 3d 26 3a bf 3d
       0.039332815 0.043228775 0.10246592 0.09337263
0002e0 7c fc 5a 3c 8c 7c 02 3d 69 78 5f 3d 77 f4 d5 bc
       0.013365861 0.03185706 0.05455819 -0.026117546
0002f0 3e 23 77 3d 41 b6 c1 3c 58 45 f0 3d 16 02 d1 3b
       0.060336344 0.023646476 0.11731976 0.0063784225
000300 2f 61 b1 3d 0c 71 d3 3d 17 b4 e3 3d 97 23 d1 3a
       0.086611144 0.10324296 0.11118334 0.0015956041
000310 ea 0a c7 3d 41 3f a1 bc 05 16 87 3d d3 5d 09 bd
       0.097188786 -0.019683482 0.06595997 -0.033536743
000320 29 d8 63 3d ce a9 ee 3c 59 e3 80 3c d6 a2 23 ba
       0.05562607 0.029133704 0.015733408 -0.0006242221
000330 b0 ac f9 3d d7 9a b2 3d b0 b8 3e bc 95 ae bb bc
       0.12191141 0.087209396 -0.011640713 -0.022910396
000340 9c dc 2b bc e3 87 2b bd 6f 96 eb 3c 4a 1e 03 3e
       -0.010489609 -0.04187764 0.028758256 0.12804523
000350 29 05 01 3e 54 32 98 bd 30 ce 07 3c 16 4f 91 bd
       0.12599625 -0.07431474 0.008288905 -0.070951626
000360 96 de ba bd 7a d7 c1 bd 9d dd be 3b 75 6b bd 3d
       -0.09124486 -0.09464927 0.005824758 0.092490114
000370 81 de 93 3d 8e 9a 57 bd a4 30 45 bc 16 0a 01 bc
       0.072201736 -0.05263763 -0.012035523 -0.00787594
000380 d0 06 ee bd e6 86 07 3d b0 4e 7c bd 93 48 2d 3c
       -0.11622393 0.033087634 -0.06159848 0.010576385
000390 d4 c6 85 bd d8 4c 51 3c bd e2 21 bd e6 68 f5 bc
       -0.06532064 0.012774669 -0.039522875 -0.029957246
0003a0 1c 96 21 3d 70 d5 5a 3d 74 16 fa bd c3 28 c4 bc
       0.039449796 0.053426206 -0.12211314 -0.023945218
0003b0 cc 17 b9 bc 99 e8 0d 3e 39 e5 7d 3d a6 0e 7e 3d
       -0.022594355 0.1385826 0.061986182 0.06202569
0003c0 81 66 ed 3d 45 8c b7 3d 78 84 83 3d 71 27 e6 3d
       0.11591817 0.08962301 0.06421751 0.112379916
0003d0 68 45 01 3c f7 67 a8 3d 1e 58 e5 3d 94 3c f9 3d
       0.007890083 0.08222955 0.11198448 0.121697575
0003e0 20 48 e4 bd 50 a6 01 bd 10 b5 11 3d e9 44 98 bd
       -0.11146569 -0.03165275 0.035573065 -0.074350186
0003f0 9a 97 a1 bd bb ae 6d 3c 46 a6 21 3d c4 b9 39 bd
       -0.07890244 0.014506991 0.03946521 -0.045343176
